…
loss: 0.000369  [19200/60000]
loss: 0.000064  [25600/60000]
loss: 0.000018  [32000/60000]
loss: 0.000697  [38400/60000]
loss: 0.002824  [44800/60000]
loss: 0.000919  [51200/60000]
loss: 0.000004  [57600/60000]
Accuracy: 0.986
Epoch 23
-------------------------------
loss: 0.000257  [    0/60000]
loss: 0.000198  [ 6400/60000]
loss: 0.000001  [12800/60000]
loss: 0.000006  [19200/60000]
loss: 0.003779  [25600/60000]
loss: 0.000096  [32000/60000]
loss: 0.000024  [38400/60000]
loss: 0.000011  [44800/60000]
loss: 0.000083  [51200/60000]
loss: 0.000023  [57600/60000]
Accuracy: 0.986
YourNet(
  (conv1): Conv2d(1, 3, kernel_size=(3, 3), stride=(1, 1))
  (conv2): Conv2d(3, 4, kernel_size=(3, 3), stride=(1, 1))
  (fc1): Linear(in_features=100, out_features=110, bias=True)
  (fc2): Linear(in_features=110, out_features=90, bias=True)
  (fc3): Linear(in_features=90, out_features=10, bias=True)
)
Epoch 0
-------------------------------
loss: 0.000015  [    0/60000]
loss: 0.000041  [ 6400/60000]
loss: 0.000126  [12800/60000]
loss: 0.005516  [19200/60000]
loss: 0.000021  [25600/60000]
loss: 0.002285  [32000/60000]
loss: 0.005711  [38400/60000]
loss: 0.000655  [44800/60000]
loss: 0.039238  [51200/60000]
loss: 0.000365  [57600/60000]
Accuracy: 0.985
…
loss: 0.000007  [19200/60000]
loss: 0.000022  [25600/60000]
loss: 0.000018  [32000/60000]
loss: 0.000025  [38400/60000]
loss: 0.000033  [44800/60000]
loss: 0.000031  [51200/60000]
loss: 0.000115  [57600/60000]
Accuracy: 0.986
Epoch 23
-------------------------------
loss: 0.000001  [    0/60000]
loss: 0.000000  [ 6400/60000]
loss: 0.000010  [12800/60000]
loss: 0.000155  [19200/60000]
loss: 0.000076  [25600/60000]
loss: 0.000012  [32000/60000]
loss: 0.000007  [38400/60000]
loss: 0.000031  [44800/60000]
loss: 0.000067  [51200/60000]
loss: 0.000001  [57600/60000]
Accuracy: 0.986
YourNet(
  (conv1): Conv2d(1, 3, kernel_size=(3, 3), stride=(1, 1))
  (conv2): Conv2d(3, 4, kernel_size=(3, 3), stride=(1, 1))
  (fc1): Linear(in_features=100, out_features=110, bias=True)
  (fc2): Linear(in_features=110, out_features=82, bias=True)
  (fc3): Linear(in_features=82, out_features=10, bias=True)
)
Epoch 0
-------------------------------
loss: 0.000022  [    0/60000]
loss: 0.000478  [ 6400/60000]
loss: 0.001746  [12800/60000]
loss: 0.000725  [19200/60000]
loss: 0.000073  [25600/60000]
loss: 0.000039  [32000/60000]
loss: 0.000687  [38400/60000]
loss: 0.000611  [44800/60000]
loss: 0.000129  [51200/60000]
loss: 0.007652  [57600/60000]
Accuracy: 0.985
…
loss: 0.000002  [19200/60000]
loss: 0.000027  [25600/60000]
loss: 0.000008  [32000/60000]
loss: 0.000000  [38400/60000]
loss: 0.000001  [44800/60000]
loss: 0.000951  [51200/60000]
loss: 0.000009  [57600/60000]
Accuracy: 0.986
Epoch 23
-------------------------------
loss: 0.000002  [    0/60000]
loss: 0.000127  [ 6400/60000]
loss: 0.000095  [12800/60000]
loss: 0.000004  [19200/60000]
loss: 0.000020  [25600/60000]
loss: 0.000037  [32000/60000]
loss: 0.000001  [38400/60000]
loss: 0.000068  [44800/60000]
loss: 0.000001  [51200/60000]
loss: 0.000383  [57600/60000]
Accuracy: 0.986
YourNet(
  (conv1): Conv2d(1, 3, kernel_size=(3, 3), stride=(1, 1))
  (conv2): Conv2d(3, 4, kernel_size=(3, 3), stride=(1, 1))
  (fc1): Linear(in_features=100, out_features=101, bias=True)
  (fc2): Linear(in_features=101, out_features=82, bias=True)
  (fc3): Linear(in_features=82, out_features=10, bias=True)
)
Epoch 0
-------------------------------
loss: 0.000000  [    0/60000]
loss: 0.000073  [ 6400/60000]
loss: 0.000012  [12800/60000]
loss: 0.000006  [19200/60000]
loss: 0.000000  [25600/60000]
loss: 0.013711  [32000/60000]
loss: 0.000001  [38400/60000]
loss: 0.000223  [44800/60000]
loss: 0.000020  [51200/60000]
loss: 0.032572  [57600/60000]
Accuracy: 0.985
…
loss: 0.000000  [19200/60000]
loss: 0.000001  [25600/60000]
loss: 0.000007  [32000/60000]
loss: 0.000028  [38400/60000]
loss: 0.000007  [44800/60000]
loss: 0.000000  [51200/60000]
loss: 0.000000  [57600/60000]
Accuracy: 0.987
Epoch 23
-------------------------------
loss: 0.000000  [    0/60000]
loss: 0.000000  [ 6400/60000]
loss: 0.000025  [12800/60000]
loss: 0.000004  [19200/60000]
loss: 0.001183  [25600/60000]
loss: 0.000003  [32000/60000]
loss: 0.000000  [38400/60000]
loss: 0.000124  [44800/60000]
loss: 0.000000  [51200/60000]
loss: 0.000000  [57600/60000]
Accuracy: 0.987
YourNet(
  (conv1): Conv2d(1, 3, kernel_size=(3, 3), stride=(1, 1))
  (conv2): Conv2d(3, 4, kernel_size=(3, 3), stride=(1, 1))
  (fc1): Linear(in_features=100, out_features=101, bias=True)
  (fc2): Linear(in_features=101, out_features=75, bias=True)
  (fc3): Linear(in_features=75, out_features=10, bias=True)
)
Epoch 0
-------------------------------
loss: 0.000111  [    0/60000]
loss: 0.007508  [ 6400/60000]
loss: 0.017825  [12800/60000]
loss: 0.000254  [19200/60000]
loss: 0.000243  [25600/60000]
loss: 0.000010  [32000/60000]
loss: 0.000858  [38400/60000]
loss: 0.000350  [44800/60000]
loss: 0.105993  [51200/60000]
loss: 0.000022  [57600/60000]
Accuracy: 0.984
…
loss: 0.000008  [19200/60000]
loss: 0.000014  [25600/60000]
loss: 0.000134  [32000/60000]
loss: 0.000014  [38400/60000]
loss: 0.000000  [44800/60000]
loss: 0.000000  [51200/60000]
loss: 0.000007  [57600/60000]
Accuracy: 0.987
Epoch 23
-------------------------------
loss: 0.000001  [    0/60000]
loss: 0.000000  [ 6400/60000]
loss: 0.000248  [12800/60000]
loss: 0.000116  [19200/60000]
loss: 0.000000  [25600/60000]
loss: 0.000000  [32000/60000]
loss: 0.000001  [38400/60000]
loss: 0.000029  [44800/60000]
loss: 0.000000  [51200/60000]
loss: 0.000000  [57600/60000]
Accuracy: 0.987
YourNet(
  (conv1): Conv2d(1, 3, kernel_size=(3, 3), stride=(1, 1))
  (conv2): Conv2d(3, 4, kernel_size=(3, 3), stride=(1, 1))
  (fc1): Linear(in_features=100, out_features=92, bias=True)
  (fc2): Linear(in_features=92, out_features=75, bias=True)
  (fc3): Linear(in_features=75, out_features=10, bias=True)
)
Epoch 0
-------------------------------
loss: 0.000175  [    0/60000]
loss: 0.216016  [ 6400/60000]
loss: 0.000048  [12800/60000]
loss: 0.000005  [19200/60000]
loss: 0.000001  [25600/60000]
loss: 0.000000  [32000/60000]
loss: 0.000149  [38400/60000]
loss: 0.000024  [44800/60000]
loss: 0.000004  [51200/60000]
loss: 0.000015  [57600/60000]
Accuracy: 0.986
…
loss: 0.000000  [19200/60000]
loss: 0.000000  [25600/60000]
loss: 0.000000  [32000/60000]
loss: 0.000095  [38400/60000]
loss: 0.000163  [44800/60000]
loss: 0.000004  [51200/60000]
loss: 0.000000  [57600/60000]
Accuracy: 0.986
Epoch 23
-------------------------------
loss: 0.000013  [    0/60000]
loss: 0.000000  [ 6400/60000]
loss: 0.000000  [12800/60000]
loss: 0.000000  [19200/60000]
loss: 0.000000  [25600/60000]
loss: 0.000011  [32000/60000]
loss: 0.000001  [38400/60000]
loss: 0.000028  [44800/60000]
loss: 0.000000  [51200/60000]
loss: 0.000000  [57600/60000]
Accuracy: 0.986
YourNet(
  (conv1): Conv2d(1, 3, kernel_size=(3, 3), stride=(1, 1))
  (conv2): Conv2d(3, 4, kernel_size=(3, 3), stride=(1, 1))
  (fc1): Linear(in_features=100, out_features=92, bias=True)
  (fc2): Linear(in_features=92, out_features=69, bias=True)
  (fc3): Linear(in_features=69, out_features=10, bias=True)
)
Epoch 0
-------------------------------
loss: 0.000028  [    0/60000]
loss: 0.000500  [ 6400/60000]
loss: 0.000095  [12800/60000]
loss: 0.020383  [19200/60000]
loss: 0.001899  [25600/60000]
loss: 0.000000  [32000/60000]
loss: 0.000434  [38400/60000]
loss: 0.000582  [44800/60000]
loss: 0.025601  [51200/60000]
loss: 0.095224  [57600/60000]
Accuracy: 0.985
…
loss: 0.000010  [19200/60000]
loss: 0.000006  [25600/60000]
loss: 0.000002  [32000/60000]
loss: 0.000205  [38400/60000]
loss: 0.000001  [44800/60000]
loss: 0.000002  [51200/60000]
loss: 0.000157  [57600/60000]
Accuracy: 0.987
Epoch 23
-------------------------------
loss: 0.000241  [    0/60000]
loss: 0.000001  [ 6400/60000]
loss: 0.000009  [12800/60000]
loss: 0.000470  [19200/60000]
loss: 0.000002  [25600/60000]
loss: 0.000002  [32000/60000]
loss: 0.000000  [38400/60000]
loss: 0.000040  [44800/60000]
loss: 0.000015  [51200/60000]
loss: 0.000043  [57600/60000]
Accuracy: 0.987
YourNet(
  (conv1): Conv2d(1, 3, kernel_size=(3, 3), stride=(1, 1))
  (conv2): Conv2d(3, 4, kernel_size=(3, 3), stride=(1, 1))
  (fc1): Linear(in_features=100, out_features=84, bias=True)
  (fc2): Linear(in_features=84, out_features=69, bias=True)
  (fc3): Linear(in_features=69, out_features=10, bias=True)
)
Epoch 0
-------------------------------
loss: 0.004169  [    0/60000]
loss: 0.000003  [ 6400/60000]
loss: 0.000889  [12800/60000]
loss: 0.001021  [19200/60000]
loss: 0.000003  [25600/60000]
loss: 0.003858  [32000/60000]
loss: 0.000321  [38400/60000]
loss: 0.005647  [44800/60000]
loss: 0.000136  [51200/60000]
loss: 0.000000  [57600/60000]
Accuracy: 0.985
…
loss: 0.000003  [19200/60000]
loss: 0.000001  [25600/60000]
loss: 0.000002  [32000/60000]
loss: 0.000000  [38400/60000]
loss: 0.000001  [44800/60000]
loss: 0.000000  [51200/60000]
loss: 0.000000  [57600/60000]
Accuracy: 0.985
Epoch 23
-------------------------------
loss: 0.000001  [    0/60000]
loss: 0.000000  [ 6400/60000]
loss: 0.000000  [12800/60000]
loss: 0.000000  [19200/60000]
loss: 0.000001  [25600/60000]
loss: 0.000000  [32000/60000]
loss: 0.000003  [38400/60000]
loss: 0.000004  [44800/60000]
loss: 0.000003  [51200/60000]
loss: 0.000000  [57600/60000]
Accuracy: 0.985
YourNet(
  (conv1): Conv2d(1, 3, kernel_size=(3, 3), stride=(1, 1))
  (conv2): Conv2d(3, 4, kernel_size=(3, 3), stride=(1, 1))
  (fc1): Linear(in_features=100, out_features=84, bias=True)
  (fc2): Linear(in_features=84, out_features=63, bias=True)
  (fc3): Linear(in_features=63, out_features=10, bias=True)
)
Epoch 0
-------------------------------
loss: 0.000015  [    0/60000]
loss: 0.022499  [ 6400/60000]
loss: 0.000023  [12800/60000]
loss: 0.000188  [19200/60000]
loss: 0.000254  [25600/60000]
loss: 0.002654  [32000/60000]
loss: 0.000078  [38400/60000]
loss: 0.001494  [44800/60000]
loss: 0.002634  [51200/60000]
loss: 0.000036  [57600/60000]
Accuracy: 0.982
…
loss: 0.000008  [19200/60000]
loss: 0.000007  [25600/60000]
loss: 0.000000  [32000/60000]
loss: 0.000018  [38400/60000]
loss: 0.000035  [44800/60000]
loss: 0.000000  [51200/60000]
loss: 0.000002  [57600/60000]
Accuracy: 0.987
Epoch 23
-------------------------------
loss: 0.000017  [    0/60000]
loss: 0.000177  [ 6400/60000]
loss: 0.000056  [12800/60000]
loss: 0.000000  [19200/60000]
loss: 0.000000  [25600/60000]
loss: 0.000093  [32000/60000]
loss: 0.000045  [38400/60000]
loss: 0.000002  [44800/60000]
loss: 0.000017  [51200/60000]
loss: 0.000051  [57600/60000]
Accuracy: 0.987
YourNet(
  (conv1): Conv2d(1, 3, kernel_size=(3, 3), stride=(1, 1))
  (conv2): Conv2d(3, 4, kernel_size=(3, 3), stride=(1, 1))
  (fc1): Linear(in_features=100, out_features=77, bias=True)
  (fc2): Linear(in_features=77, out_features=63, bias=True)
  (fc3): Linear(in_features=63, out_features=10, bias=True)
)
Epoch 0
-------------------------------
loss: 0.002561  [    0/60000]
loss: 0.005847  [ 6400/60000]
loss: 0.000000  [12800/60000]
loss: 0.009735  [19200/60000]
loss: 0.058765  [25600/60000]
loss: 0.000429  [32000/60000]
loss: 0.000004  [38400/60000]
loss: 0.009547  [44800/60000]
loss: 0.000051  [51200/60000]
loss: 0.000087  [57600/60000]
Accuracy: 0.985
…
loss: 0.000000  [19200/60000]
loss: 0.000075  [25600/60000]
loss: 0.000003  [32000/60000]
loss: 0.000043  [38400/60000]
loss: 0.000000  [44800/60000]
loss: 0.000006  [51200/60000]
loss: 0.000000  [57600/60000]
Accuracy: 0.987
Epoch 23
-------------------------------
loss: 0.000000  [    0/60000]
loss: 0.000001  [ 6400/60000]
loss: 0.000000  [12800/60000]
loss: 0.000036  [19200/60000]
loss: 0.000013  [25600/60000]
loss: 0.000001  [32000/60000]
loss: 0.000000  [38400/60000]
loss: 0.000000  [44800/60000]
loss: 0.000000  [51200/60000]
loss: 0.000001  [57600/60000]
Accuracy: 0.987
YourNet(
  (conv1): Conv2d(1, 3, kernel_size=(3, 3), stride=(1, 1))
  (conv2): Conv2d(3, 4, kernel_size=(3, 3), stride=(1, 1))
  (fc1): Linear(in_features=100, out_features=77, bias=True)
  (fc2): Linear(in_features=77, out_features=58, bias=True)
  (fc3): Linear(in_features=58, out_features=10, bias=True)
)
Epoch 0
-------------------------------
loss: 0.000030  [    0/60000]
loss: 0.023018  [ 6400/60000]
loss: 0.036966  [12800/60000]
loss: 0.000000  [19200/60000]
loss: 0.000089  [25600/60000]
loss: 0.000641  [32000/60000]
loss: 0.049552  [38400/60000]
loss: 0.000262  [44800/60000]
loss: 0.000238  [51200/60000]
loss: 0.001685  [57600/60000]
Accuracy: 0.984
…
loss: 0.000006  [19200/60000]
loss: 0.000003  [25600/60000]
loss: 0.000000  [32000/60000]
loss: 0.000000  [38400/60000]
loss: 0.000028  [44800/60000]
loss: 0.000002  [51200/60000]
loss: 0.000000  [57600/60000]
Accuracy: 0.986
Epoch 23
-------------------------------
loss: 0.000000  [    0/60000]
loss: 0.000001  [ 6400/60000]
loss: 0.000000  [12800/60000]
loss: 0.000000  [19200/60000]
loss: 0.000002  [25600/60000]
loss: 0.000000  [32000/60000]
loss: 0.000000  [38400/60000]
loss: 0.000001  [44800/60000]
loss: 0.000001  [51200/60000]
loss: 0.000365  [57600/60000]
Accuracy: 0.986
YourNet(
  (conv1): Conv2d(1, 3, kernel_size=(3, 3), stride=(1, 1))
  (conv2): Conv2d(3, 4, kernel_size=(3, 3), stride=(1, 1))
  (fc1): Linear(in_features=100, out_features=71, bias=True)
  (fc2): Linear(in_features=71, out_features=58, bias=True)
  (fc3): Linear(in_features=58, out_features=10, bias=True)
)
Epoch 0
-------------------------------
loss: 0.001113  [    0/60000]
loss: 0.000427  [ 6400/60000]
loss: 0.084010  [12800/60000]
loss: 0.000005  [19200/60000]
loss: 0.000001  [25600/60000]
loss: 0.000127  [32000/60000]
loss: 0.001038  [38400/60000]
loss: 0.020265  [44800/60000]
loss: 0.000027  [51200/60000]
loss: 0.000651  [57600/60000]
Accuracy: 0.985
…
loss: 0.000043  [19200/60000]
loss: 0.000021  [25600/60000]
loss: 0.000030  [32000/60000]
loss: 0.000000  [38400/60000]
loss: 0.000034  [44800/60000]
loss: 0.000000  [51200/60000]
loss: 0.000000  [57600/60000]
Accuracy: 0.986
Epoch 23
-------------------------------
loss: 0.000000  [    0/60000]
loss: 0.000000  [ 6400/60000]
loss: 0.000003  [12800/60000]
loss: 0.000000  [19200/60000]
loss: 0.000005  [25600/60000]
loss: 0.000000  [32000/60000]
loss: 0.000006  [38400/60000]
loss: 0.000000  [44800/60000]
loss: 0.000000  [51200/60000]
loss: 0.000184  [57600/60000]
Accuracy: 0.986
YourNet(
  (conv1): Conv2d(1, 3, kernel_size=(3, 3), stride=(1, 1))
  (conv2): Conv2d(3, 4, kernel_size=(3, 3), stride=(1, 1))
  (fc1): Linear(in_features=100, out_features=71, bias=True)
  (fc2): Linear(in_features=71, out_features=53, bias=True)
  (fc3): Linear(in_features=53, out_features=10, bias=True)
)
Epoch 0
-------------------------------
loss: 0.000007  [    0/60000]
loss: 0.140614  [ 6400/60000]
loss: 0.013437  [12800/60000]
loss: 0.003798  [19200/60000]
loss: 0.000044  [25600/60000]
loss: 0.078649  [32000/60000]
loss: 0.000002  [38400/60000]
loss: 0.136593  [44800/60000]
loss: 0.002425  [51200/60000]
loss: 0.045218  [57600/60000]
Accuracy: 0.982
…
loss: 0.000001  [19200/60000]
loss: 0.000023  [25600/60000]
loss: 0.000094  [32000/60000]
loss: 0.000001  [38400/60000]
loss: 0.000001  [44800/60000]
loss: 0.000012  [51200/60000]
loss: 0.000000  [57600/60000]
Accuracy: 0.985
Epoch 23
-------------------------------
loss: 0.000001  [    0/60000]
loss: 0.000012  [ 6400/60000]
loss: 0.000157  [12800/60000]
loss: 0.000000  [19200/60000]
loss: 0.000008  [25600/60000]
loss: 0.000001  [32000/60000]
loss: 0.000005  [38400/60000]
loss: 0.000061  [44800/60000]
loss: 0.000002  [51200/60000]
loss: 0.000035  [57600/60000]
Accuracy: 0.985
YourNet(
  (conv1): Conv2d(1, 3, kernel_size=(3, 3), stride=(1, 1))
  (conv2): Conv2d(3, 4, kernel_size=(3, 3), stride=(1, 1))
  (fc1): Linear(in_features=100, out_features=65, bias=True)
  (fc2): Linear(in_features=65, out_features=53, bias=True)
  (fc3): Linear(in_features=53, out_features=10, bias=True)
)
Epoch 0
-------------------------------
loss: 0.021372  [    0/60000]
loss: 0.046370  [ 6400/60000]
loss: 0.087064  [12800/60000]
loss: 0.000821  [19200/60000]
loss: 0.002777  [25600/60000]
loss: 0.002345  [32000/60000]
loss: 0.027149  [38400/60000]
loss: 0.000000  [44800/60000]
loss: 0.079716  [51200/60000]
loss: 0.000010  [57600/60000]
Accuracy: 0.984
…
loss: 0.000001  [19200/60000]
loss: 0.000106  [25600/60000]
loss: 0.000019  [32000/60000]
loss: 0.000002  [38400/60000]
loss: 0.000001  [44800/60000]
loss: 0.000109  [51200/60000]
loss: 0.000002  [57600/60000]
Accuracy: 0.985
Epoch 23
-------------------------------
loss: 0.000002  [    0/60000]
loss: 0.000058  [ 6400/60000]
loss: 0.000000  [12800/60000]
loss: 0.000001  [19200/60000]
loss: 0.000013  [25600/60000]
loss: 0.000003  [32000/60000]
loss: 0.000000  [38400/60000]
loss: 0.000000  [44800/60000]
loss: 0.000000  [51200/60000]
loss: 0.000006  [57600/60000]
Accuracy: 0.985
YourNet(
  (conv1): Conv2d(1, 3, kernel_size=(3, 3), stride=(1, 1))
  (conv2): Conv2d(3, 4, kernel_size=(3, 3), stride=(1, 1))
  (fc1): Linear(in_features=100, out_features=65, bias=True)
  (fc2): Linear(in_features=65, out_features=49, bias=True)
  (fc3): Linear(in_features=49, out_features=10, bias=True)
)
Epoch 0
-------------------------------
loss: 0.270021  [    0/60000]
loss: 0.105117  [ 6400/60000]
loss: 0.000014  [12800/60000]
loss: 0.003109  [19200/60000]
loss: 0.056968  [25600/60000]
loss: 0.000384  [32000/60000]
loss: 0.030906  [38400/60000]
loss: 0.087402  [44800/60000]
loss: 0.000043  [51200/60000]
loss: 0.003775  [57600/60000]
Accuracy: 0.983
…
loss: 0.000002  [19200/60000]
loss: 0.000055  [25600/60000]
loss: 0.000000  [32000/60000]
loss: 0.000059  [38400/60000]
loss: 0.000011  [44800/60000]
loss: 0.000028  [51200/60000]
loss: 0.000000  [57600/60000]
Accuracy: 0.985
Epoch 23
-------------------------------
loss: 0.000064  [    0/60000]
loss: 0.000000  [ 6400/60000]
loss: 0.000001  [12800/60000]
loss: 0.000005  [19200/60000]
loss: 0.000027  [25600/60000]
loss: 0.000263  [32000/60000]
loss: 0.000003  [38400/60000]
loss: 0.000006  [44800/60000]
loss: 0.000509  [51200/60000]
loss: 0.000001  [57600/60000]
Accuracy: 0.985
YourNet(
  (conv1): Conv2d(1, 3, kernel_size=(3, 3), stride=(1, 1))
  (conv2): Conv2d(3, 4, kernel_size=(3, 3), stride=(1, 1))
  (fc1): Linear(in_features=100, out_features=60, bias=True)
  (fc2): Linear(in_features=60, out_features=49, bias=True)
  (fc3): Linear(in_features=49, out_features=10, bias=True)
)
Epoch 0
-------------------------------
loss: 0.000000  [    0/60000]
loss: 0.003972  [ 6400/60000]
loss: 0.000321  [12800/60000]
loss: 0.000018  [19200/60000]
loss: 0.000001  [25600/60000]
loss: 0.001255  [32000/60000]
loss: 0.003951  [38400/60000]
loss: 0.000018  [44800/60000]
loss: 0.000497  [51200/60000]
loss: 0.024865  [57600/60000]
Accuracy: 0.982
…
loss: 0.000007  [19200/60000]
loss: 0.000002  [25600/60000]
loss: 0.000000  [32000/60000]
loss: 0.000018  [38400/60000]
loss: 0.000000  [44800/60000]
loss: 0.000000  [51200/60000]
loss: 0.000080  [57600/60000]
Accuracy: 0.984
Epoch 23
-------------------------------
loss: 0.000095  [    0/60000]
loss: 0.000000  [ 6400/60000]
loss: 0.000000  [12800/60000]
loss: 0.000003  [19200/60000]
loss: 0.000005  [25600/60000]
loss: 0.000107  [32000/60000]
loss: 0.000000  [38400/60000]
loss: 0.000152  [44800/60000]
loss: 0.000001  [51200/60000]
loss: 0.000000  [57600/60000]
Accuracy: 0.985
YourNet(
  (conv1): Conv2d(1, 3, kernel_size=(3, 3), stride=(1, 1))
  (conv2): Conv2d(3, 4, kernel_size=(3, 3), stride=(1, 1))
  (fc1): Linear(in_features=100, out_features=60, bias=True)
  (fc2): Linear(in_features=60, out_features=45, bias=True)
  (fc3): Linear(in_features=45, out_features=10, bias=True)
)
Epoch 0
-------------------------------
loss: 0.000091  [    0/60000]
loss: 0.011264  [ 6400/60000]
loss: 0.004643  [12800/60000]
loss: 0.038028  [19200/60000]
loss: 0.001185  [25600/60000]
loss: 0.000015  [32000/60000]
loss: 0.009411  [38400/60000]
loss: 0.048285  [44800/60000]
loss: 0.055433  [51200/60000]
loss: 0.000009  [57600/60000]
Accuracy: 0.984
…
loss: 0.000271  [19200/60000]
loss: 0.000049  [25600/60000]
loss: 0.000182  [32000/60000]
loss: 0.000007  [38400/60000]
loss: 0.000000  [44800/60000]
loss: 0.000024  [51200/60000]
loss: 0.000002  [57600/60000]
Accuracy: 0.984
Epoch 23
-------------------------------
loss: 0.000028  [    0/60000]
loss: 0.000011  [ 6400/60000]
loss: 0.000001  [12800/60000]
loss: 0.000007  [19200/60000]
loss: 0.000001  [25600/60000]
loss: 0.000065  [32000/60000]
loss: 0.000019  [38400/60000]
loss: 0.000003  [44800/60000]
loss: 0.000000  [51200/60000]
loss: 0.000047  [57600/60000]
Accuracy: 0.984
YourNet(
  (conv1): Conv2d(1, 3, kernel_size=(3, 3), stride=(1, 1))
  (conv2): Conv2d(3, 4, kernel_size=(3, 3), stride=(1, 1))
  (fc1): Linear(in_features=100, out_features=55, bias=True)
  (fc2): Linear(in_features=55, out_features=45, bias=True)
  (fc3): Linear(in_features=45, out_features=10, bias=True)
)
Epoch 0
-------------------------------
loss: 0.082514  [    0/60000]
loss: 0.007343  [ 6400/60000]
loss: 0.000045  [12800/60000]
loss: 0.002458  [19200/60000]
loss: 0.000030  [25600/60000]
loss: 0.000030  [32000/60000]
loss: 0.015766  [38400/60000]
loss: 0.000007  [44800/60000]
loss: 0.000000  [51200/60000]
loss: 0.000852  [57600/60000]
Accuracy: 0.984
…
loss: 0.000004  [19200/60000]
loss: 0.000000  [25600/60000]
loss: 0.000064  [32000/60000]
loss: 0.000018  [38400/60000]
loss: 0.000000  [44800/60000]
loss: 0.000067  [51200/60000]
loss: 0.000001  [57600/60000]
Accuracy: 0.985
Epoch 23
-------------------------------
loss: 0.000052  [    0/60000]
loss: 0.000001  [ 6400/60000]
loss: 0.000005  [12800/60000]
loss: 0.000001  [19200/60000]
loss: 0.000000  [25600/60000]
loss: 0.000017  [32000/60000]
loss: 0.000023  [38400/60000]
loss: 0.000068  [44800/60000]
loss: 0.000000  [51200/60000]
loss: 0.000001  [57600/60000]
Accuracy: 0.985
YourNet(
  (conv1): Conv2d(1, 3, kernel_size=(3, 3), stride=(1, 1))
  (conv2): Conv2d(3, 4, kernel_size=(3, 3), stride=(1, 1))
  (fc1): Linear(in_features=100, out_features=55, bias=True)
  (fc2): Linear(in_features=55, out_features=41, bias=True)
  (fc3): Linear(in_features=41, out_features=10, bias=True)
)
Epoch 0
-------------------------------
loss: 0.002170  [    0/60000]
loss: 0.000415  [ 6400/60000]
loss: 0.038437  [12800/60000]
loss: 0.169872  [19200/60000]
loss: 0.001570  [25600/60000]
loss: 0.000036  [32000/60000]
loss: 0.018671  [38400/60000]
loss: 0.026822  [44800/60000]
loss: 0.000126  [51200/60000]
loss: 0.000238  [57600/60000]
Accuracy: 0.981
…
loss: 0.000391  [19200/60000]
loss: 0.000008  [25600/60000]
loss: 0.000151  [32000/60000]
loss: 0.001178  [38400/60000]
loss: 0.000000  [44800/60000]
loss: 0.000000  [51200/60000]
loss: 0.000034  [57600/60000]
Accuracy: 0.984
Epoch 23
-------------------------------
loss: 0.000023  [    0/60000]
loss: 0.000012  [ 6400/60000]
loss: 0.000019  [12800/60000]
loss: 0.000043  [19200/60000]
loss: 0.000012  [25600/60000]
loss: 0.000000  [32000/60000]
loss: 0.000008  [38400/60000]
loss: 0.000011  [44800/60000]
loss: 0.000002  [51200/60000]
loss: 0.000085  [57600/60000]
Accuracy: 0.984
YourNet(
  (conv1): Conv2d(1, 3, kernel_size=(3, 3), stride=(1, 1))
  (conv2): Conv2d(3, 4, kernel_size=(3, 3), stride=(1, 1))
  (fc1): Linear(in_features=100, out_features=51, bias=True)
  (fc2): Linear(in_features=51, out_features=41, bias=True)
  (fc3): Linear(in_features=41, out_features=10, bias=True)
)
Epoch 0
-------------------------------
loss: 0.000264  [    0/60000]
loss: 0.000720  [ 6400/60000]
loss: 0.007123  [12800/60000]
loss: 0.002834  [19200/60000]
loss: 0.000009  [25600/60000]
loss: 0.009814  [32000/60000]
loss: 0.000148  [38400/60000]
loss: 0.000168  [44800/60000]
loss: 0.000074  [51200/60000]
loss: 0.080271  [57600/60000]
Accuracy: 0.983
…
loss: 0.000012  [19200/60000]
loss: 0.000008  [25600/60000]
loss: 0.000176  [32000/60000]
loss: 0.000001  [38400/60000]
loss: 0.000001  [44800/60000]
loss: 0.000056  [51200/60000]
loss: 0.000030  [57600/60000]
Accuracy: 0.984
Epoch 23
-------------------------------
loss: 0.000013  [    0/60000]
loss: 0.000009  [ 6400/60000]
loss: 0.000000  [12800/60000]
loss: 0.000849  [19200/60000]
loss: 0.000323  [25600/60000]
loss: 0.000496  [32000/60000]
loss: 0.000003  [38400/60000]
loss: 0.000001  [44800/60000]
loss: 0.000000  [51200/60000]
loss: 0.000005  [57600/60000]
Accuracy: 0.984
YourNet(
  (conv1): Conv2d(1, 3, kernel_size=(3, 3), stride=(1, 1))
  (conv2): Conv2d(3, 4, kernel_size=(3, 3), stride=(1, 1))
  (fc1): Linear(in_features=100, out_features=51, bias=True)
  (fc2): Linear(in_features=51, out_features=38, bias=True)
  (fc3): Linear(in_features=38, out_features=10, bias=True)
)
Epoch 0
-------------------------------
loss: 0.038633  [    0/60000]
loss: 0.000022  [ 6400/60000]
loss: 0.039034  [12800/60000]
loss: 0.093621  [19200/60000]
loss: 0.013891  [25600/60000]
loss: 0.000011  [32000/60000]
loss: 0.000007  [38400/60000]
loss: 0.013775  [44800/60000]
loss: 0.000066  [51200/60000]
loss: 0.001284  [57600/60000]
Accuracy: 0.980
…
loss: 0.000433  [19200/60000]
loss: 0.000010  [25600/60000]
loss: 0.000013  [32000/60000]
loss: 0.000214  [38400/60000]
loss: 0.000000  [44800/60000]
loss: 0.000033  [51200/60000]
loss: 0.000029  [57600/60000]
Accuracy: 0.984
Epoch 23
-------------------------------
loss: 0.000393  [    0/60000]
loss: 0.000152  [ 6400/60000]
loss: 0.000001  [12800/60000]
loss: 0.000000  [19200/60000]
loss: 0.000006  [25600/60000]
loss: 0.000040  [32000/60000]
loss: 0.000002  [38400/60000]
loss: 0.000036  [44800/60000]
loss: 0.000056  [51200/60000]
loss: 0.000001  [57600/60000]
Accuracy: 0.984
YourNet(
  (conv1): Conv2d(1, 3, kernel_size=(3, 3), stride=(1, 1))
  (conv2): Conv2d(3, 4, kernel_size=(3, 3), stride=(1, 1))
  (fc1): Linear(in_features=100, out_features=51, bias=True)
  (fc2): Linear(in_features=51, out_features=35, bias=True)
  (fc3): Linear(in_features=35, out_features=10, bias=True)
)
[INFO] Register count_convNd() for <class 'torch.nn.modules.conv.Conv2d'>.
[INFO] Register count_linear() for <class 'torch.nn.modules.linear.Linear'>.
[91m[WARN] Cannot find rule for <class 'models.YourNet.YourNet'>. Treat it as zero Macs and zero Params.[00m
----------------------------------------------------------------
| Model Name | Accuracy | Infer Time(ms) | Params(M) | MACs(M) |
----------------------------------------------------------------
|    YourNet |    0.985 |          0.039 |     0.041 |   0.007 |
----------------------------------------------------------------
./checkpoints/YourNet/pruning/20/epoch-15.pth
YourNet(
  (conv1): Conv2d(1, 3, kernel_size=(3, 3), stride=(1, 1))
  (conv2): Conv2d(3, 4, kernel_size=(3, 3), stride=(1, 1))
  (fc1): Linear(in_features=100, out_features=51, bias=True)
  (fc2): Linear(in_features=51, out_features=35, bias=True)
  (fc3): Linear(in_features=35, out_features=10, bias=True)
)
